saved/theta_all.npy (npy, 5328 bytes, 1 tensors)

array f8 [10, 65]
000000 37 5c 20 98 5b dd e0 bf 00 00 00 00 00 00 00 00
       -0.5270212146014107 0.0
000010 a0 59 00 15 fd f4 d6 bf 58 59 b5 29 3a 56 95 3f
       -0.3587029175845604 0.02083674315994108
000020 09 1e 55 2e 41 24 7a bf ff a1 a0 88 97 d0 ac bf
       -0.006382231343486485 -0.05627893011871165
000030 d3 5e 35 aa ae 9e b1 3f e6 00 45 41 20 f7 cc bf
       0.06882754950981544 -0.22629168688764095
000040 c8 4c cf b0 26 45 a5 bf 00 00 00 00 00 00 00 00
       -0.041543206294272716 0.0
000050 de 74 3f 2d 01 e0 68 3f 37 de ae c9 b0 07 dc bf
       0.0030365012153042844 -0.43796939559567555
000060 ef d4 ea 07 7d 2a dc bf 5c 54 b0 65 03 e6 e0 bf
       -0.4400932862584587 -0.5280777917966009
000070 a9 cd 90 bb 3a f9 d2 bf 18 2c 50 44 ca fb d7 3f
       -0.2964617568679509 0.3747430483933285
000080 6e 1a fe 1e 7f 53 90 bf d3 dd 93 44 02 4c 87 bf
       -0.01594351412452471 -0.01137544414312589
000090 f8 a7 70 f5 39 71 8c 3f 40 6e 07 40 3c 8c e0 bf
       0.013887837221847818 -0.5171185732428469
0000a0 31 74 19 04 4d be cf 3f 2e 04 2f db 38 a3 c5 3f
       0.24799502086799088 0.16904364301993396
0000b0 a0 ab 31 00 b0 5c dd bf fd 8c d8 da 8f ac d5 3f
       -0.4587821962256218 0.3386573445479398
0000c0 ea 3e ad 2a 19 95 69 bf 40 49 2a 02 bb 1e ac 3f
       -0.003122853425715157 0.05492195512228415
0000d0 e7 45 66 32 eb f4 bf 3f c1 1f 7b 28 b4 61 e2 bf
       0.1248309133573212 -0.5744267264026278
0000e0 e3 5b 94 8d 58 7e c1 3f b5 54 b7 35 83 8f da bf
       0.1366682711893353 -0.41500931020466264
0000f0 a8 da 80 52 6f 81 e3 bf 05 19 45 0c 48 35 8b 3f
       -0.6095501529114999 0.01328522002644351
000100 a8 80 9b 6b 11 02 c9 3f 2a 8d 02 96 59 1c a5 3f
       0.19537561182278762 0.04123191791702603
000110 23 73 2f e4 59 f6 d4 3f 55 d9 eb fb d5 28 e5 bf
       0.32753608020520825 -0.6612348480546567
000120 3f ec 2d 59 ee db ba 3f 3d 1f e4 05 67 06 db bf
       0.1049183814738379 -0.4222657735376634
000130 fa f4 5e 45 f1 64 db bf df dc 08 a4 44 6e d1 bf
       -0.42803603910927246 -0.27235523242002374
000140 d7 4f e2 1b 7c b5 d2 3f 19 6c 04 bb 38 53 82 bf
       0.2923269531540859 -0.008947795111955913
000150 76 a7 84 9e 07 83 dc 3f fa 6c 22 62 c7 62 e2 bf
       0.44549742203036347 -0.5745579640091869
000160 19 5c d9 81 24 fb d7 3f bc 7f 26 0b ae eb c9 3f
       0.37470352821895997 0.2025048784680602
000170 d6 6b 2f 73 0e e3 e0 bf 6d 23 7b e8 7f 38 c3 bf
       -0.5277168512069419 -0.15016173221217902
000180 b0 ae c4 cb 83 c8 ae 3f 86 a5 20 40 36 be 4e bf
       0.06012355673223391 -0.0009382023711214528
000190 38 fa f9 8a e9 63 e0 3f f4 fc 8b 9f 85 89 e9 bf
       0.512196322859217 -0.7980373493336672
0001a0 7f 8d 43 e0 44 6c e1 bf 21 22 58 10 6d a1 db bf
       -0.544466436400782 -0.4317276630031604
0001b0 ef 08 c6 c2 e4 90 e1 bf 3d d1 73 89 4b 75 c9 3f
       -0.5489372066661228 0.19889206134360818
0001c0 f8 29 13 fe 47 b7 c0 bf c9 d2 b9 3e d8 b7 58 bf
       -0.1305932989692591 -0.001508675743847098
0001d0 a5 e0 34 d3 08 63 c3 bf 3d 5d c9 22 bd ca b5 bf
       -0.15145979225940667 -0.08512479876786912
0001e0 f8 75 4c a5 8f 69 cd bf e2 cc 92 c7 4d 8a c3 bf
       -0.22978396960472458 -0.15265819783016982
0001f0 ff 1e e9 a1 82 4f c5 3f 70 26 7d a8 1c 32 d1 bf
       0.16648896127502863 -0.26868359045020096
000200 1c e2 eb 02 dd 24 b3 bf 18 59 70 07 06 9e ac bf
       -0.0747812397129412 -0.055893124015869045
000210 00 00 00 00 00 00 00 00 cb c3 8f 95 2a 33 e1 bf
       0.0 -0.5374958916782985
000220 eb 67 d2 d9 9d 46 d6 bf 51 01 5d 04 cc e5 bf 3f
       -0.34806009551686995 0.12460017305875694
000230 d0 78 1a 30 a1 58 d5 3f a0 46 a8 41 9e 4d d2 bf
       0.33353452394102323 -0.2859874383148995
000240 f0 ce f2 12 31 d0 97 3f ce bc de 06 40 99 b4 bf
       0.023255125791094622 -0.08046341102339058
000250 00 00 00 00 00 00 00 00 3f 4d 6f 8e 68 98 e2 bf
       0.0 -0.5811045438698911
000260 be b1 68 b4 ca 8b c1 3f cd ef 2e 9a b8 09 d3 3f
       0.1370786076453338 0.297468329019236
000270 8d 76 8e 4c e2 bf b3 bf 6a c5 60 c3 52 c8 b2 bf
       -0.07714666718535508 -0.07336919088335994
000280 0e ab 2b 1d ab 75 c9 bf 56 23 41 20 65 12 b9 bf
       -0.19890345501274748 -0.0979369357820706
000290 30 04 4d c2 b5 3f 7e bf 24 07 71 9c 3b 9e e1 bf
       -0.007384977336927043 -0.5505655341623634
0002a0 18 56 c0 e1 cb 4a d2 3f 16 13 59 86 d3 2f 9e 3f
       0.2858152107813523 0.029479317736576048
0002b0 fd a9 02 76 dd c7 cb bf d7 2d 6b 97 2b 1d c5 3f
       -0.21703689825274344 0.16495270627488764
0002c0 1d 14 00 08 8b 39 d6 bf 18 eb 98 06 a9 79 b4 bf
       -0.34726215153961154 -0.07998138819759182
0002d0 60 d0 ab 09 24 84 67 bf e4 b1 8c 45 49 49 c9 bf
       -0.00287062681797505 -0.19754901786781354
0002e0 74 56 9a a2 d5 c1 d5 3f c0 c7 f0 59 e6 ef d9 bf
       0.33995571974933303 -0.40526732238060603
0002f0 73 8b be 33 a9 72 89 bf e3 91 8a 4c 8a b0 62 3f
       -0.012425729648219285 0.002281446566785515
000300 7d 6d 34 2f c6 9e e0 bf af 72 22 0f 87 53 b1 bf
       -0.5193816110581079 -0.06768077964302209
000310 a8 ae c5 94 e1 16 72 bf 47 55 0f 5b 0a ac d1 bf
       -0.00441635244019848 -0.27612551586692685
000320 f5 f5 3e fd 1e 95 cb 3f a7 41 12 33 32 44 c3 bf
       0.21548831334614219 -0.1505186795589115
000330 d6 2c 41 1e b5 b1 ad 3f 7f 1e e1 28 81 73 a7 bf
       0.0579964255744813 -0.04580310462966696
000340 c2 9d ed b3 69 f9 e0 bf c9 3a e2 31 21 14 b4 bf
       -0.5304459108564787 -0.07843215434898378
000350 5d ac d4 5a 25 e8 7a bf b8 06 b5 2d 97 a8 e2 bf
       -0.006569047848908741 -0.5830799000470597
000360 1d d4 40 a0 cc 77 91 bf 94 d2 16 12 e6 2b 84 3f
       -0.017058560639458976 0.009849355151211804
000370 6b 27 ad c4 e8 42 a3 bf c4 6b e9 53 5c 74 a4 3f
       -0.037619852074000835 0.03995026134790394
000380 b8 c1 eb 3b 64 e1 d8 bf fe bc 56 fb 1d 81 ba bf
       -0.38875680781987 -0.10353267084314052
000390 94 6c 22 00 bf 28 61 bf ea 87 00 85 22 60 e0 bf
       -0.002094624565030021 -0.5117352101990467
0003a0 98 d3 74 38 ff 1a d0 bf 04 c6 4b 51 7d b7 93 3f
       -0.25164776337924755 0.01925464447680804
0003b0 32 7f 6c 07 d9 b9 b6 bf 2b 44 1e d4 40 01 7b 3f
       -0.08877331191297058 0.006592992054621975
0003c0 79 fc 9d a6 61 03 c7 bf b1 e8 49 47 e5 0b 65 3f
       -0.17979069362261038 0.0025691488356730176
0003d0 b3 88 30 60 1b 7c 74 bf c6 de de 24 29 f7 d6 bf
       -0.005001170097815133 -0.35883549309390295
0003e0 68 af 76 b1 53 a5 d6 bf cd 74 a5 5d f2 0f 8f 3f
       -0.3538407547991853 0.015167134745463074
0003f0 6d 35 1b 2d 7c 23 ba bf fd 58 fe 63 e6 73 af bf
       -0.10210395909526478 -0.06143112154602368
000400 72 e0 e8 15 23 75 be bf 0c e0 9a 19 2e 50 f6 3e
       -0.11897486958412332 2.127952902838963e-05
000410 55 3b ef b3 f5 32 d5 bf 00 00 00 00 00 00 00 00
       -0.33123533794144083 0.0
000420 e0 bf 7f a5 63 54 d4 3f 26 bc a7 3c cc 27 d6 bf
       0.3176507106973059 -0.3461790649734574
000430 53 74 44 cd 79 3d d0 bf 15 3b 2f 2a 46 71 c2 3f
       -0.2537521843494847 0.14408185062207993
000440 2a 1f a0 65 10 6b d7 bf 1f c0 9a ac 36 65 d2 bf
       -0.36590967106211514 -0.28742758613498326
000450 46 38 aa ca a4 69 a5 bf 00 00 00 00 00 00 00 00
       -0.04182162259995485 0.0
000460 d4 ea de 06 55 85 cc 3f e9 62 1a b1 c4 89 de bf
       0.22281897387968874 -0.47715871138784266
000470 45 85 1a 7a 45 da cc bf fe da d6 bc 98 9f d6 bf
       -0.22541111433114672 -0.353491005338057
000480 4c 30 6b 76 fb e2 c8 bf 30 1a d2 db 72 47 d2 bf
       -0.19442694933093418 -0.2856108805357591
000490 ee 8a c4 92 5c f9 a8 bf 29 48 b5 43 97 8d 82 bf
       -0.048777478137955174 -0.009059125665462702
0004a0 f4 e0 95 6b 2f 5b 9c 3f 81 db 1a f6 c9 38 c5 3f
       0.02769159406804618 0.16579556004372978
0004b0 ff 36 f8 5c d3 65 cb 3f 0c 74 2b cf d0 5d b8 bf
       0.2140449718430588 -0.09518151338438957
0004c0 f0 a8 0e 3f 0f 93 be 3f 33 32 99 9b da 00 cf bf
       0.1194314507435228 -0.24221356008128367
0004d0 69 51 0b f4 bc df a3 bf 39 e1 e2 ed 14 61 75 bf
       -0.038816361227563 -0.005219537501197907
0004e0 13 54 01 d5 22 28 e6 bf c8 2c dc 54 db 48 df bf
       -0.6923994217164612 -0.4888218239509112
0004f0 36 64 56 ae b5 fc 42 3f a4 65 bc ce 6c 3e cb bf
       0.000579441749027804 -0.21284256071593888
000500 1e 1c d8 86 d8 26 85 bf ed 64 31 45 97 1b d8 bf
       -0.010327998747937935 -0.3766840148651472
000510 bc c7 9e bc 3a bd a7 bf e4 0c 79 e4 8d 00 73 bf
       -0.04636558105939012 -0.004639200465649671
000520 17 6a 80 8c 9f be e1 bf 9d 28 4b 18 92 92 c3 bf
       -0.554519438187813 -0.1529104822751081
000530 0a c4 fa 53 e1 45 a9 bf d6 73 74 c1 c4 c3 97 3f
       -0.049361268521700266 0.023207735354947655
000540 27 00 d4 7c c6 a5 5a bf 12 dd d4 11 42 72 e7 bf
       -0.0016264379840436134 -0.7326975200911952
000550 33 67 ec 10 98 4b b8 bf 9c 39 d9 bd 9f 31 95 3f
       -0.09490347302599104 0.020697113001284614
000560 e5 18 b6 29 3f 7d d3 bf 19 d5 83 f1 bb a4 da 3f
       -0.3045194537484249 0.416304574827636
000570 26 ec 92 cf ae 4a c2 3f 66 5a 47 f1 f1 2a cf 3f
       0.1429041398567687 0.24349808007419255
000580 7e 25 b6 88 fa 6d a8 3f 9d 79 1c f4 f7 83 da bf
       0.04771407049981756 -0.4143047222040879
000590 e6 4b 57 5f d0 48 c1 bf 4f ce 4d c3 fe 63 53 bf
       -0.13503460555384023 -0.0011835086745265626
0005a0 a7 70 2f 78 9b 1e ab bf 86 78 e7 4a c6 b0 c0 3f
       -0.05296789018731945 0.13039473206930924
0005b0 5a 46 91 c3 bc 35 d8 bf 9b 82 96 3b 0d a8 cf bf
       -0.3782798681105298 -0.24731603059355653
0005c0 e6 63 4f 3f ea c0 da 3f e6 82 86 f9 58 9e dc 3f
       0.41802459890965193 0.44716476791113136
0005d0 f3 a2 4c d2 e5 c1 bc 3f d9 ff ac 0a 98 e0 95 3f
       0.11233364471685174 0.021364570285413585
0005e0 3b 49 d0 aa 87 1e cd 3f 24 a1 24 43 03 65 d0 bf
       0.22749420013912833 -0.256165328568857
0005f0 6f 7a c9 ed 8a e8 d8 bf a1 fc 7f 02 eb 7f dd bf
       -0.3891932794703398 -0.4609324955380974
000600 bd a3 2e bc 66 5f d0 bf 0f 65 41 37 13 19 e0 3f
       -0.2558228337971363 0.5030609206397986
000610 77 57 15 58 1c 4f d3 3f a9 13 fa a0 24 3e d6 bf
       0.3017035350979919 -0.3475429126777337
000620 00 00 00 00 00 00 00 00 12 da 6c c9 26 02 d5 3f
       0.0 0.32825631781034403
000630 73 d5 87 eb 5e e0 98 bf 2d c6 40 c4 4d 06 d2 bf
       -0.024293406606337564 -0.28163475194296234
000640 4f 6c ef 1a 7b 9d e0 bf d1 bc d6 fb 43 3c ab bf
       -0.519223740203765 -0.05319416474537209
000650 55 3b 90 74 72 af 9d 3f 6a 1a 17 72 e4 23 ad bf
       0.028989590038743646 -0.05691446201995094
000660 00 00 00 00 00 00 00 00 c6 8c ee a7 4d c6 b2 bf
       0.0 -0.07333836889170006
000670 91 8d d1 b5 74 3e bd bf 01 a9 7c 3e dc 6f d5 3f
       -0.11423425139360278 0.33495241262666303
000680 15 2a 7f 38 f3 b5 d6 bf 22 99 73 12 5b af c0 bf
       -0.3548553516126572 -0.13035143280939915
000690 18 b6 94 d5 5b 7a b4 3f 31 c9 11 ae 87 fe b2 bf
       0.0799920460164788 -0.07419631957762786
0006a0 fe a4 c1 e4 ed c8 81 3f f0 3a d5 9f 70 81 d8 bf
       0.008684023421852146 -0.3829003868931258
0006b0 9b 96 43 ae dc 8a bf bf 62 85 21 37 ad ee b7 bf
       -0.12321261648647878 -0.09348566623659374
0006c0 16 1c 9a 0f 8f be d0 bf 8a b5 c5 26 56 39 d5 3f
       -0.261630788074798 0.3316245440135722
0006d0 76 7a b9 43 35 e2 c3 bf b8 d0 22 94 75 ac b0 bf
       -0.15534082228528562 -0.06513151995278832
0006e0 49 d6 da 10 30 a9 77 bf 00 13 7c 68 d6 bb ea bf
       -0.005776584393677072 -0.8354293862072097
0006f0 f3 f0 d1 51 0d 4c d6 bf e3 94 00 7f 3b e2 d2 3f
       -0.34839184751741853 0.2950581302887498
000700 8e d1 64 82 33 40 d5 bf c5 4c af d4 2f dc d2 3f
       -0.3320435307862447 0.29468913812634084
000710 8d 3e 70 0b f9 20 d3 bf 71 af e8 c6 ac 9e ad bf
       -0.29888750187908714 -0.05785121849143494
000720 77 89 34 27 d4 84 75 bf 79 f2 88 1b df 0d e7 bf
       -0.005253628466819974 -0.72044330003662
000730 9c cf 07 e8 e9 5f e7 bf 89 ef c5 97 7c 17 d0 3f
       -0.7304582149358683 0.2514335138473532
000740 ba 73 ed 8d 68 90 c0 bf 71 31 e2 f1 2a 8c d4 bf
       -0.12940699510627757 -0.32105516072694856
000750 45 0f 2b 71 0f 63 c9 3f fb 2f d6 f5 28 40 b3 bf
       0.19833558107176877 -0.07519775392410104
000760 3b d1 01 b5 ba a6 6c bf 4c 06 d9 37 96 48 dd bf
       -0.003497471487259455 -0.4575553460491377
000770 e3 64 21 6e 36 19 e1 bf 43 94 aa 65 11 2d cc bf
       -0.5343277121529834 -0.22012536491561904
000780 39 8d f0 55 da 17 b7 bf ec 59 97 02 07 0d df bf
       -0.0902077159703837 -0.4851701283745615
000790 6c 0c f7 3b 59 23 d2 3f cf dc 97 c5 13 5a af bf
       0.28340750556907923 -0.06123410975481535
0007a0 e1 f3 1b ef 83 10 46 bf b5 f7 7c 33 db ba cb bf
       -0.0006733555039485328 -0.21663990034170202
0007b0 bc a4 1a ef 12 99 c6 bf 9f b2 4a 5f 55 02 e1 3f
       -0.1765464465618488 0.531534849278234
0007c0 04 0e 4c bd 6e 43 a6 bf 1a 1a 62 c5 1d a9 d4 bf
       -0.04348321972613792 -0.322822039372484
0007d0 31 da 0a bb 3d 3c c1 3f 49 5e b4 72 e2 88 ba bf
       0.13465091355256356 -0.10365119266895663
0007e0 1c 39 cc 86 6e 2e 64 bf 5f 23 94 79 cc 71 af 3f
       -0.0024635466310264486 0.06141509040941772
0007f0 31 7b b1 92 fc 54 b6 3f ad 2e 93 bf a9 dc d5 bf
       0.0872342928064256 -0.3415932055329261
